system/resnet.ckpt (torch, 811490 bytes, 77 tensors)

conv.weight f4 [16, 3, 3, 3]
00000000: 8335 c4bd a95a fb3d da0b 55be 27b8 c4bd
00000010: 1d5d 57bd 4b10 ddbd 46d0 ddbd 1614 233c
00000020: 7eb3 413e 9b4c 063e d2d3 adbd 5392 28be
00000030: 7d69 fabc 5386 223e b56c 5dbd 5afb e23d
00000040: 5f3a 9e3e 474d a93e 5fe5 093e e7c4 033d
00000050: 8eb9 61be e7f5 bf3d 78f1 b4bd e203 19be
00000060: 1325 09be 4777 3e3d b856 25bc a067 3ebe
00000070: 0085 9f3e c7fa 8b3d 33cc f23d ccb8 d7bc
00000080: 2f9d d7bc 527b 94bc 6796 a8bd db38 bcbd
00000090: b1e7 f63d 1006 a43e 4dac f53d 2a12 d8bd
000000a0: 2fdb ad3c b2aa d2bd 5415 853c 938d a0bd
000000b0: 0932 6fbb b1ef 553d a009 e43d 2133 a93d
000000c0: 434b 00be 3acb 353d 9b54 aabe 2d06 e33d
000000d0: 99d9 dbbd e1e3 5fbd 1f01 54be e771 21be
000000e0: c35c 4bbe 34eb 343d 6b12 9f3d f98b abbd
000000f0: 9ff8 b8bc 35e4 db3d a3b1 4bbe b9f4 98be
00000100: 85c6 c93d ab62 84bd 2769 8c3d e820 143e
00000110: 2372 263d dd80 c53d 5331 463e f556 a4bd
00000120: 2869 a8bd 5685 09bd fcc2 0c3e ebfb 253e
00000130: 9bbf e03e cf30 333e 05c7 84bd 8ce0 973e
00000140: 5ebe 983b 1b91 373c da1d d2bd f350 c03d
00000150: 4743 b53c c95e 59be 5d63 243d 6292 90be
00000160: 8d3f c1bd 0d53 34be a162 49bd 7bf0 d53d
00000170: 6ecf 3b3e 9780 adbd 8e43 c93d 833a 7b3e
00000180: 1769 68be 66a9 37be c898 e2bc 1222 18be
00000190: 9e07 eb3d bac7 0dbe d71f f33d ee8e 873e
000001a0: f5f5 303e 5d31 2fbe ab83 79bd bed6 20be
000001b0: 4de0 693e 38b4 ebbd 40e4 be3c 0ea4 a4bd
000001c0: 08a0 60be c003 703e 7096 ecbd 1a4d 843d
000001d0: 2b71 703d 7fcf d83d c5a4 30be 2981 09be
000001e0: db7d 0bbe d71c bfbd 7343 b33e 28a6 993d
000001f0: 846e 13be a6f7 063c 6607 423c 86bf 19bd
00000200: 1d6d afbd 564f 02be 631f 04be 0fd6 a53e
00000210: be34 1d3e 74e1 25be ebf8 c53d 61d6 20be
00000220: fed8 88be 0803 67be 5c7b a83d 90bc 6e3e
00000230: d240 a7bd 6196 8bbd a19b 5dbd 6da4 8a3d
00000240: 8a9c 84bd 07ae 01bd 5c46 5cbe b276 cabd
00000250: 318b 873e dced 0c3e 2b9b 853d a4b4 513e
00000260: b87c 30be 4230 b03b d085 28be 03ca 2fbe
00000270: 5b4f 6f3d 16b9 573e bb44 c23d bfb5 e23d
00000280: f857 973d 2e78 0dbe 7f7e edbd b92f a0bd
00000290: 73e9 36be 4ecb 673d 1cc7 2f3e 44a3 7f3e
000002a0: 6b71 1b3e 8dc5 8a3e d07a 363e 2762 bcbd
000002b0: 36b2 573d aeee 5dbe 327a e4bc 4c4d 8abd
000002c0: fe89 d2bd 6f1c edbd 8220 7abd 6d1a 44bd
000002d0: dbc1 783d 13a9 623e 61b4 4bbd 5b90 f13d
000002e0: b3db a3bd 2cb7 c13d d189 35bd 65f5 7bbe
000002f0: 3dec 373c c426 ab3d 2a53 0d3e 4bd0 ccbd
00000300: 9547 1a3e 42b1 a33d adac 353e b461 68be
00000310: 0fc1 16be cae1 443e 24ac 97bd 3cd6 d53d
00000320: c5cd 2dbd 4cda 7ebd c2c4 b5be cd11 f4bd
00000330: ebb8 16bd d1e6 ddbd be49 fc3d 5517 0dbe
00000340: 0ada 413d 56e9 40be 336e 443e 2965 19be
00000350: 5aba f9bd 7b24 8a3e 533f f43d fb26 a1bd
00000360: 972a 423d 2d0b e5b8 4f4b f83d 3d23 73be
00000370: 5ac6 aabd be0b 923e 5ee7 d3bd 2878 9ebd
00000380: 9176 f33d 1f16 89be 600c 203d 8615 a03d
00000390: 9f6f 0bbe 8a23 8bbe f9d5 1b3d 2ebf a8bd
000003a0: ee6b e5bc 7e48 2b3a ce07 c73c 3c7e adbc
000003b0: c22e 473d 3eea d13d affa dabc 1f15 9b3e
000003c0: c411 ecbd f811 90bc 6fdf 8d3e 9df6 663d
000003d0: d600 e33d 6487 00bc 7ef6 35bd c969 983d
000003e0: 5af1 44be 9389 5a3e 8aeb 373c 2a37 42be
000003f0: 26af b53d 2f14 69bd 582f 2a3e 8a91 963d
-0.09580519 0.122731514 -0.20805302 -0.09605437 -0.052579034 -0.10794123 -0.10830741 0.009953519
0.18916127 0.1311516 -0.08487667 -0.16462068 -0.030567879 0.15871553 -0.05405875 0.11083098
0.3090391 0.3306677 0.13466404 0.032170203 -0.2204344 0.09373074 -0.08835119 -0.14942887
-0.13393049 0.04650047 -0.010091476 -0.18594217 0.31156158 0.06834941 0.11855354 -0.026333235
-0.026320068 -0.01812521 -0.08231812 -0.09190532 0.120559104 0.32035875 0.119957544 -0.105503395
0.021222679 -0.10286464 0.016245522 -0.07839503 -0.003649833 0.05223054 0.11134648 0.08261705
-0.1252871 0.044383265 -0.33267674 0.11085162 -0.10734863 -0.05466068 -0.20703553 -0.15766107
-0.19859605 0.04416962 0.07767185 -0.08376307 -0.02257949 0.107368864 -0.19891982 -0.2987421
0.09852318 -0.06464132 0.06855994 0.14465678 0.040636193 0.09643719 0.19354753 -0.08024398
-0.08223182 -0.033574425 0.13746256 0.1620938 0.43896183 0.17499088 -0.064832725 0.29663503
0.0046613654 0.011204029 -0.102596 0.0939044 0.022126807 -0.21227564 0.040133823 -0.2823668
-0.094359495 -0.17609806 -0.049166325 0.10446259 0.18340847 -0.08471792 0.09827338 0.24534039
-0.22696339 -0.17935714 -0.027660742 -0.14856747 0.11476062 -0.13845721 0.11871307 0.26476234
0.17281325 -0.17108674 -0.060916584 -0.15706918 0.2283947 -0.115089834 0.023302197 -0.080391034
-0.21936047 0.2343893 -0.11552131 0.064600185 0.058701675 0.10586452 -0.17250355 -0.13428177
-0.13622229 -0.09331673 0.35012397 0.07502395 -0.14397627 0.008237755 0.011842584 -0.037536167
-0.085657336 -0.12725577 -0.12902598 0.32389876 0.15352151 -0.16199285 0.09666618 -0.15706779
-0.26728052 -0.2255975 0.08226654 0.23314118 -0.0816666 -0.06815792 -0.054103497 0.06769643
-0.0647517 -0.031660106 -0.21511215 -0.098859206 0.26473382 0.13762611 0.065237366 0.20479065
-0.17235076 0.0053768465 -0.16457295 -0.17166905 0.05842529 0.21066698 0.094857655 0.110698216
0.073898256 -0.13815376 -0.11596393 -0.078216024 -0.17862491 0.05659037 0.17165798 0.24964625
0.15179984 0.27103844 0.17820287 -0.091984086 0.05266019 -0.2167308 -0.027890299 -0.067530245
-0.10280226 -0.11577689 -0.061066158 -0.047876764 0.06073175 0.22134809 -0.04973257 0.11795112
-0.08000889 0.094587654 -0.044320885 -0.2460533 0.011225757 0.08357003 0.13801256 -0.10000666
0.15066369 0.079927936 0.17741652 -0.22693521 -0.14722084 0.19226757 -0.0740588 0.104412526
-0.042432565 -0.062219903 -0.35501677 -0.11917458 -0.036797445 -0.1083504 0.12318753 -0.13778432
0.04732708 -0.1883901 0.19182663 -0.14979996 -0.12193747 0.26980957 0.11926141 -0.07868763
0.047403898 -0.000109216526 0.12123739 -0.23743911 -0.08338614 0.28524584 -0.10346864 -0.07737762
0.11887849 -0.2677469 0.0390743 0.07816605 -0.13616799 -0.27175552 0.038045857 -0.0823959
-0.028005566 0.00065339345 0.024295714 -0.021178357 0.048628576 0.10249756 -0.026730863 0.30289552
-0.11526826 -0.017586693 0.2770953 0.056387533 0.11084144 -0.00784478 -0.044424526 0.07442052
-0.19232693 0.21341543 0.0112255905 -0.18966356 0.088712975 -0.056904014 0.16619623 0.07351978

bn.weight f4 [16]
00000000: e074 583f 0f01 583f 39b7 493f c725 5b3f
00000010: 759b 873f a7c6 4f3f f1c4 433f 345e 643f
00000020: d6f8 363f 51e2 623f 07cb 7a3f 08bb 593f
00000030: 0866 653f f08f 643f 835b 5e3f 4572 583f
0.8455334 0.84376615 0.787952 0.8560452 1.0594317 0.81162494 0.76472384 0.8920624
0.71473444 0.8862658 0.97966045 0.8505101 0.8960881 0.8928213 0.86858386 0.8454936

bn.bias f4 [16]
00000000: 7e72 ca3e a41e 4dbd c304 3dbe 5682 02be
00000010: b332 243f 0077 ce3d eabb c93e dc87 9e3b
00000020: 86a6 313e 762a 983d 356d 7c3d 3a30 fb3e
00000030: dae1 923e 29ce ce3e 85dd 033e 80d0 803f
0.39540476 -0.05007805 -0.18458848 -0.12745032 0.6413986 0.10081291 0.3940118 0.004837973
0.1734868 0.07429974 0.061627585 0.4906023 0.28687936 0.40391663 0.12877472 1.0063629

bn.running_mean f4 [16]
00000000: 125d fc3c d73c 8d3d dca2 593e 4635 83be
00000010: dd88 6bbc 4a5f f2bd f296 5e3d 1f9e d9bd
00000020: b3dc 78bc 8b0b b4ba a0bf a039 38a1 223d
00000030: 5d89 873a f653 103c a436 20bd a31c 4dba
0.030806098 0.0689637 0.21253532 -0.25626582 -0.0143758925 -0.11834581 0.05434317 -0.10625862
-0.015189338 -0.001373635 0.0003066035 0.03970453 0.001034062 0.00880908 -0.03911461 -0.00078243966

bn.running_var f4 [16]
00000000: cf75 aa3c 2709 de3c dffe 913d dea4 753d
00000010: 40d4 843c f96b 243d 0b80 1f3c 3ae5 213c
00000020: a726 2c3d 2da1 3b3b 84c3 a53c 3066 ca3c
00000030: 9083 cd3c 918d 823c 11bc a83c d971 8d3b
0.020808129 0.027103974 0.07128691 0.059971683 0.01621449 0.040142033 0.009735118 0.009881312
0.04202905 0.0028630004 0.02023483 0.02470693 0.025087148 0.015936645 0.02059749 0.00431655

layer1.0.conv1.weight f4 [16, 16, 3, 3]
00000000: 8688 b8bd b046 11be b872 63be 472c 5bbc
00000010: 07e6 f0bd 2657 6dbd 4b23 4dbb a53c 893c
00000020: eac4 e63c c8f6 063c 3724 a33d 8646 9ebc
00000030: a345 183c 6ae4 3bbe 3db1 12be b40c c2bd
00000040: f634 afbd 8939 23be 2a31 bb3c 1f62 803d
00000050: 8ef4 a7bd aec5 5cbd 4856 2c3d a920 1c3d
00000060: 966c 033e 1596 0a3e 82ce 073e 22e3 4bbe
00000070: 5c6c 35be 4fe4 17be 4d3c e53d 67ed 823d
00000080: 763a 1e3d 83b5 bbbd f461 0fbd 1966 d6bd
00000090: 0515 9fbd 32c3 2c3e 8365 83bc be09 8abd
000000a0: c1a2 ee3d c733 88bd 2b28 93bd c86a b0bc
000000b0: ebbe 89bd 60d2 efbb 75a5 283d e17c ec3d
000000c0: 9fb0 01bd ba88 b0bd ab71 ebbd 2ec5 87bd
000000d0: fd66 433e e9e4 d43d a002 ebbc 560f 603d
000000e0: 7fa6 213d 2e49 883d b271 6dbc 94a9 d13d
000000f0: c79a 27bc 7587 2c3e 4e14 4f3e d323 02be
00000100: 660b 1fbe 9e54 bfbb e371 3e3d 7e4d 46bc
00000110: 5c38 b73a 1ccf a23d 702e aabc d364 a1bb
00000120: b0a0 7cbd ac59 003e 8372 e83d b1cd 063e
00000130: 0b79 233e 2ead 18bd 40f8 c73d 153d a93d
00000140: 7355 853a 38e3 d03d bbab c93d dd0c debc
00000150: fb35 03bd fdc6 443d cca5 1cbe 59cf 82bc
00000160: 27ea cfbd a8dc 983d d171 d6be 5bd3 99be
00000170: 2e30 a2be 0616 4dbc d582 073c 146a bf3d
00000180: abba 6cbd 187e 8bbc 95ac 873d fce5 823c
00000190: ee1f 323e 76b0 263e 86f7 6b3e bb2c 293e
000001a0: bf25 a13d 3354 2a3b 22ab 223e 46ba e63d
000001b0: d925 0cbe 4893 65bc b2c3 203e ccf5 4a3d
000001c0: 6416 b53c 217d c83d 7ef2 e43d 6d12 a03d
000001d0: d3f2 ec3d 0cb5 02be 0818 90bd 0c74 553d
000001e0: 5b10 83bd edde 443d be02 0bbd 3921 00bc
000001f0: 19d2 983d adb6 6e3e 7a12 ca3d b3fa 24bd
00000200: 1373 533d c84b 263d 0663 e23d 04ab 213e
00000210: f368 573d d129 503e 3d39 973e 7ae4 5cbd
00000220: 4b81 03be e95c 11bd 5fb4 193e ac32 40be
00000230: 8b6c 3cbc 2c5c bd3c 8ea7 873c b14b 80be
00000240: 05fc 0dbe de02 08be 8f06 88bd d531 40be
00000250: 4bb5 cbbd aaae 423d 6e79 243d db3d 8e3d
00000260: 3887 bf3c 0f2f 4e3d db18 213d 9d95 64bc
00000270: 5129 60bd fb14 aabd 6406 bfbd 2f51 06be
00000280: 8766 ceba 5256 4a3d c3c5 873d d889 763d
00000290: e07d 9b3d 6119 adbc f19e 9cbd dfac a8bd
000002a0: ba4d 6bbd 5973 11bd 9af8 a4bd e305 c93d
000002b0: fce5 d43b 9a0f 2bbd ad9b f0bc 32cf 343d
000002c0: b7dc 3bbc b040 8ebc 06ed 50bd 03ed 10bd
000002d0: 5bde b3bc 3d01 e6bc 2a70 c53c 02d8 ac3d
000002e0: 0bb8 a3bd 8034 f23d 7573 293e dc0b 2dbe
000002f0: f518 66bd 2acf 82ba 19f0 243e 50ce f43d
00000300: cb1b f3bd 7900 3d3e 4034 0c3e c0f3 8abe
00000310: 6c68 3d3d 562b ee3c 01e2 47bd cc2d 2fbe
00000320: 918c 1abe 0375 08be 9a7c a3be 7aab 493c
00000330: 741d 0cbd 2f7c 173a 0988 803d d3f6 e1bd
00000340: 1dfc d4bc ae56 8c3c 9759 86bd fe64 34be
00000350: 36d1 fb3d f697 80be 8b38 03be 7476 183c
00000360: 2788 02be 44e9 a03c 95ef 1d3e 5a57 2fbd
00000370: 5844 803d fe3a 213e 71f1 01be 0587 903d
00000380: 5506 9f3d f0ff 613e cd75 633d 4147 ffbd
00000390: 9339 7d3e 9bd5 88bd fbb2 b9be 165c 4c3e
000003a0: 61f3 0bbd fe81 f8bd 5a47 17bd f057 8a3d
000003b0: ff9f c83d 0507 b8bd a859 50bd 252f 5dbd
000003c0: ca1c c73c 24e8 523d 5292 953d f97d 463e
000003d0: 02f1 d33c dea0 9cbd 5b95 5b3d e1bf 393d
000003e0: be0e 943c 1458 aabd 5848 a33c 5352 8ebd
000003f0: 2c1f 95bd 827c 353d f27b 7d3b bbe4 9c3d
-0.09010415 -0.14187121 -0.2221173 -0.013377256 -0.11762624 -0.05794444 -0.0031301554 0.01675255
0.028170068 0.008237548 0.07965892 -0.019320738 0.009293946 -0.18348852 -0.14325424 -0.09475079
-0.08555023 -0.15939917 0.022850592 0.06268715 -0.08200942 -0.05389946 0.04207447 0.038117085
0.12834391 0.13533814 0.1326237 -0.19910863 -0.17717117 -0.14833187 0.11193142 0.06392937
0.03862997 -0.0916548 -0.035005525 -0.10468692 -0.07767681 0.16871336 -0.016039615 -0.067401394
0.116521366 -0.06650501 -0.07185396 -0.021535292 -0.06725868 -0.00731878 0.041173417 0.11547256
-0.03166258 -0.086198285 -0.1149629 -0.06629406 0.19082256 0.10395224 -0.028687775 0.054702125
0.039465424 0.06654583 -0.014492439 0.102374226 -0.010229773 0.16848548 0.2022259 -0.12708978
-0.15531692 -0.0058389446 0.04649533 -0.0121034365 0.0013978588 0.07949659 -0.020774096 -0.0049253493
-0.06167668 0.12534207 0.113499664 0.13164403 0.15964143 -0.037274532 0.09764147 0.082636036
0.001017256 0.101995885 0.09847208 -0.027105743 -0.0320339 0.048041333 -0.15297621 -0.015968012
-0.10152083 0.07463962 -0.4188371 -0.30044064 -0.31677383 -0.012517458 0.008270939 0.09346405
-0.057795208 -0.0170279 0.06624714 0.015978806 0.17394993 0.16278252 0.23043641 0.1652097
0.078685276 0.0025990128 0.15885594 0.112659976 -0.13686313 -0.014012165 0.15699652 0.049550816
0.022105403 0.097894914 0.11179064 0.078160144 0.115697525 -0.12764376 -0.070358336 0.052112624
-0.06399604 0.04806416 -0.033938162 -0.007820421 0.07461948 0.23311873 0.098668054 -0.040278148
0.051623415 0.040599614 0.110540435 0.15787894 0.05259032 0.20328452 0.29535857 -0.05392883
-0.1284229 -0.035488997 0.15010212 -0.1876933 -0.011500488 0.02311524 0.016559388 -0.25057748
-0.13865669 -0.13282344 -0.06641876 -0.1876901 -0.09946688 0.047529854 0.040154867 0.06945392
0.023379907 0.050337847 0.039330345 -0.013951686 -0.054726902 -0.08304783 -0.09327391 -0.13116907
-0.0015747108 0.049398728 0.06629517 0.06019005 0.07592368 -0.021130266 -0.07647503 -0.082360975
-0.057447173 -0.035510395 -0.080552295 0.09815576 0.006497143 -0.041762926 -0.029371107 0.04414291
-0.011466197 -0.01736483 -0.051007293 -0.035382282 -0.021956613 -0.028076762 0.024101336 0.08439638
-0.07994088 0.1182642 0.1654795 -0.16899055 -0.056176145 -0.0009979953 0.16107215 0.119534135
-0.118705355 0.18457212 0.13691807 -0.27139091 0.046242163 0.029073399 -0.04879952 -0.17107314
-0.15092684 -0.13325886 -0.31931 0.01230895 -0.034207776 0.00057786977 0.06275947 -0.11033406
-0.025999123 0.017131176 -0.06560057 -0.1761665 0.12295763 -0.25115937 -0.12814538 0.009305585
-0.1274725 0.01964248 0.15423425 -0.042807914 0.062630355 0.1574516 -0.12689759 0.07057003
0.077648796 0.22070289 0.055532265 -0.124647625 0.24728994 -0.06681367 -0.36269364 0.19957003
-0.03416765 -0.12134169 -0.03693328 0.06755054 0.09796142 -0.08985714 -0.050866753 -0.05400004
0.02430572 0.051490918 0.07303299 0.19383992 0.025871757 -0.076478705 0.053609233 0.045349006
0.018073436 -0.08317581 0.019931957 -0.06949296 -0.07281336 0.044308193 0.0038678613 0.076608144

layer1.0.bn1.weight f4 [16]
00000000: 5437 623f 7d92 543f 06bf 653f 9f30 5d3f
00000010: acbf 813f 545d 8b3f 9c81 873f 3095 883f
00000020: 838a 983f a0d3 9d3f d548 703f 66ae 7d3f
00000030: 0071 613f 7d62 8d3f e26e 783f 0b4e 713f
0.88365674 0.83036023 0.89744604 0.86402315 1.0136619 1.0887856 1.0586429 1.0670528
1.191727 1.2330208 0.9386113 0.99094236 0.8806305 1.1045681 0.97044194 0.9425971

layer1.0.bn1.bias f4 [16]
00000000: b592 ddbd cd45 49bd f46d d2bd 850f 3dbd
00000010: 565e 8ebd d649 783e 1844 573e a2b7 19be
00000020: ea4c 543e 48b6 013e 7eab b73d 023c 3b3d
00000030: ae56 003e 444c 0c3f fc1d 1dbd 0ba1 503e
-0.10818998 -0.049138833 -0.10274878 -0.04615738 -0.06951587 0.24246916 0.2102207 -0.15011457
0.20732465 0.12667191 0.089682564 0.045711525 0.12533066 0.5480387 -0.038358673 0.20373933

layer1.0.bn1.running_mean f4 [16]
00000000: cfa8 ce3e 13a6 09bd cc06 7ebf 5f93 86be
00000010: fb30 73be 7dd4 9ebf ece6 22bf a1ee b7be
00000020: 5339 e5be ea48 b4be 9b44 aebf c44b b7bf
00000030: 7671 81bf ef34 a8bf eb60 40bf 653e bfbe
0.40363166 -0.033605646 -0.9922912 -0.2628431 -0.23749153 -1.2408596 -0.6363361 -0.35924247
-0.44770297 -0.3521188 -1.3614687 -1.4319997 -1.011275 -1.3141154 -0.75147885 -0.3735229

layer1.0.bn1.running_var f4 [16]
00000000: f9b5 b03f ad15 7d3f 64d0 373f 75e6 9d3f
00000010: c21f 623f 4544 eb3f e6c5 d83f b900 413f
00000020: 5480 aa3f 1eb3 fa3f 6c95 4140 1784 1d40
00000030: 72fa 813f 6636 323f c71b 553f 9190 e73e
1.3805534 0.988612 0.71802354 1.2335955 0.8832971 1.8380209 1.6935394 0.7539173
1.3320413 1.9585912 3.024745 2.4611871 1.0154555 0.69614255 0.8324551 0.45227483

layer1.0.conv2.weight f4 [16, 16, 3, 3]
00000000: 0cc2 a8bd 9330 f93d f4b7 a4bd d0f9 71bd
00000010: 53ff 8b3c fc3c 3b3d 53fe 593e fd9c 0ebe
00000020: 26ee a43d 2b28 80bd b53b 05bd 792a 363d
00000030: 4448 3c3d 30f9 2d3c 09c9 45be 4a1f 703d
00000040: 4fd5 e63d 5123 fbbd cf65 e3bd 643f 55be
00000050: 6ff1 913c 210b 193e 490f d2bb 3402 243d
00000060: 088c bbbd de03 983d f28d 9a3d 4acb 36bd
00000070: a8ef fcbc ab2a 62bd aba2 3bbc 0edc a7be
00000080: 070f 733d 3313 a7bd d048 eebd 2abc 0fbe
00000090: f549 593d ad6f 873d b23a a43d f6f0 3e3c
000000a0: df82 873d e5aa 803e 1b14 b9bd d700 1bbd
000000b0: d8f3 433e 9cc1 56bd 8049 24bd 98e2 68bd
000000c0: 18b2 14be ee41 063d 1e3d 1ebd fdc1 09bd
000000d0: f1d5 6c3e cfaf d6bd 1abe d5bd 0f3a 933d
000000e0: 2f08 1cbd c986 aa3d 7051 dfbd 0fae 3d3e
000000f0: e512 383d 4155 74bd e631 173e 30ae 593a
00000100: 890f a53d f91f dcbc 3b8d 29bd dab0 ce3d
00000110: 12fa b73d 2940 5a3d c18f a63b 4fcd e03c
00000120: db3f 76bd f27a 71bd 1ed3 0fbc e4a4 193e
00000130: febe 28be c747 143d 97b6 dfbd 69f2 393e
00000140: c882 8ebe 37ad 953d e013 2cbe 9f14 c73d
00000150: 694e 423d 0b9b 693e ec94 43be f013 20be
00000160: 50df 563d bbc0 8f3d 5db3 c23d d7f1 c8bd
00000170: 7c0a 59bd 7772 f83d df9b cebd 6644 fcbc
00000180: c1f4 0cbd 058d 693d ace9 243a 04f9 93bd
00000190: 9dd3 25be b5d5 acbd f05f 453d 6fb7 b63d
000001a0: 3c00 e63c c131 dcbc d429 bebd a6b1 f83d
000001b0: dc69 663d 0110 4a3d 6bc1 5ebc 7560 64bd
000001c0: 6a77 773e 5f89 24be 535b 703c 53bc c2bc
000001d0: 1415 2f3d db58 6abd ed52 f63d 1df0 9a3b
000001e0: 321b 153e f760 5dbe b181 893e 945d c03d
000001f0: cba0 ff3d ad57 9fbe cfa4 bb3a 71cd b43d
00000200: ee45 a7ba 5197 95bd d195 a53d ec90 4abe
00000210: 4052 e8bd 78ff bdbd 782c b3bd 1d8e 783d
00000220: 218f 7b3c 89fb 70bd 5d90 2d3e a306 2abe
00000230: 015c 22bc 464a 2f3d 2361 123e 060f a53c
00000240: 8653 fb3d 83aa 223e aa39 063d b535 1f3d
00000250: 9de3 16be aa99 2bbc daad 7bbd 4291 4abe
00000260: eb46 c2bc 4e0e da3d 5d98 273d 613c 03be
00000270: cf3f 093e 41b5 c7bc 7f48 893c 5032 99bd
00000280: 1ba3 b5bd 517e 38bd 933b b73d 481e ce3d
00000290: c521 253d 78df 7b3d 83ad 2c3d da58 8bbd
000002a0: b567 033d 454a d8bd ed36 4cbe d2e4 023e
000002b0: d5d1 7c3d 54ff ebbd 1632 e33c ba75 cfbd
000002c0: 074b 073d bb9a 553d 9c09 9bbc f5b4 a3bd
000002d0: 6f80 8b3d 6ffa 18be a549 f1bd f24e 9e3b
000002e0: 7980 f3bd 804c d8bd 2d9b 03be 0949 18be
000002f0: f29a 403d 446a 00be 2d4b 0bbe c897 41be
00000300: 47be 023e d8c7 c53d 086e fc3d 0a92 043e
00000310: 38b8 473e 6312 f03d 3490 673d 8b5f afbd
00000320: 33a1 d5bc 75a9 68be bce1 0cbe ad23 923d
00000330: db3f 8dbd 897b 28bd 4da6 273e 016a b8bc
00000340: 6268 a13d 93e1 cc3d 56c1 613e 71fb 283e
00000350: f5d1 cdbd bc67 0d3d 357f 11be 1181 be3d
00000360: bdc3 d83d 13b5 eabd 4cd5 67be 49c4 ca3d
00000370: 1fe3 b8bb a16f 093e 8367 fdbc 54b4 223e
00000380: da04 273e 91bb 003d c2dd 01bc d17e d33d
00000390: a93f afbc c9db 583e 60d3 2e3e 84f0 5ebd
000003a0: 818f 39bc 1b8e 16bd 4273 b8bc 6ad2 093d
000003b0: ce5f 1e3e b0c0 063c 8f75 83bc 4458 903d
000003c0: 9f00 863d 160f 7b3d 3ce2 09bd 5b71 93bc
000003d0: 87ba e8bd 6151 45bc 583f 37bd cc30 02be
000003e0: 1cd1 03bd 462b 03be e918 273d f230 873d
000003f0: 72fe b1bc 4c7a 66bb e685 dd3c 2e12 a5bd
-0.082401365 0.12167468 -0.08042899 -0.05907613 0.017089522 0.045712456 0.21288423 -0.13927074
0.08053236 -0.062576614 -0.032527644 0.0444741 0.045967355 0.010618493 -0.1931497 0.05862359
0.11271154 -0.122625954 -0.11103403 -0.20824963 0.01781532 0.14945652 -0.0064105135 0.040041164
-0.09157568 0.074226126 0.07546605 -0.044627465 -0.030875996 -0.055216473 -0.011452357 -0.32785076
0.059340503 -0.08157959 -0.11634982 -0.14036623 0.053049047 0.06613097 0.08019008 0.011654129
0.066167586 0.25130382 -0.09037038 -0.037842598 0.19135988 -0.052430734 -0.040109158 -0.05685672
-0.14521062 0.03277772 -0.038632505 -0.033632267 0.23128487 -0.104827516 -0.104366496 0.07188808
-0.038093742 0.083264895 -0.10904205 0.1852343 0.044939894 -0.059651617 0.14765128 0.0008303849
0.08059604 -0.026870715 -0.041394453 0.100923255 0.08983244 0.053283844 0.005083055 0.027441649
-0.06011949 -0.05895514 -0.008778362 0.15004307 -0.16479108 0.036201265 -0.10923498 0.18158878
-0.27834153 0.07308429 -0.16804457 0.0972073 0.04743806 0.2281305 -0.19099778 -0.15632606
0.05245906 0.07019182 0.09506867 -0.09811752 -0.052988514 0.121312074 -0.10088324 -0.030794334
-0.034413103 0.057019252 0.00062909233 -0.0722523 -0.16194005 -0.08439199 0.048187196 0.08921706
0.028076284 -0.026879193 -0.09285322 0.12143259 0.0562533 0.04933167 -0.013595919 -0.05575605
0.24166647 -0.16068028 0.014670211 -0.02377144 0.04274471 -0.057213645 0.120275356 0.0047283308
0.14561155 -0.2161902 0.2685676 0.093928486 0.12481841 -0.3112158 0.0014316085 0.08828247
-0.001276193 -0.07304252 0.08085216 -0.19781846 -0.11343813 -0.092772424 -0.08748716 0.060682405
0.015353949 -0.058833633 0.16949601 -0.16604094 -0.009909631 0.042795442 0.14294867 0.020148765
0.1227179 0.15885358 0.032769836 0.03886958 -0.14735265 -0.010473648 -0.061445095 -0.19781974
-0.023715457 0.1064726 0.04091679 -0.12816001 0.13403247 -0.02437842 0.016758202 -0.074802995
-0.088690005 -0.04504234 0.0894691 0.100643694 0.04031541 0.061492413 0.04215766 -0.068040565
0.032081325 -0.10561041 -0.19942828 0.127826 0.06172355 -0.11523309 0.027733844 -0.101298764
0.033030536 0.052149516 -0.01892548 -0.07993499 0.06811606 -0.14939283 -0.11781625 0.0048311884
-0.118897386 -0.10561466 -0.12852164 -0.1487161 0.047022767 -0.12540537 -0.13602896 -0.18905556
0.12767898 0.09657258 0.12325674 0.12946334 0.19503868 0.11722257 0.056534007 -0.08563145
-0.026077842 -0.22720893 -0.13757986 0.07135711 -0.06896945 -0.041133437 0.16372032 -0.022511484
0.078812376 0.10003962 0.22046408 0.16502167 -0.10049812 0.034522757 -0.14208682 0.09301961
0.10584209 -0.114603184 -0.2263996 0.0990072 -0.0056423093 0.1342149 -0.030933147 0.15889102
0.16310444 0.031428877 -0.007926406 0.10326923 -0.02139266 0.21177591 0.1707282 -0.054428592
-0.011325718 -0.036756616 -0.022515897 0.033647932 0.15466234 0.008224651 -0.016047267 0.07048085
0.06543087 0.061293684 -0.03366302 -0.017998388 -0.11363702 -0.012043328 -0.044738144 -0.12713927
-0.032181844 -0.12809476 0.04079524 0.066011325 -0.021727774 -0.003516811 0.027041387 -0.08060108

layer1.0.bn2.weight f4 [16]
00000000: 64e0 8c3f f8d4 923f 99cf a33f 0669 7e3f
00000010: dfe4 7a3f 1996 8a3f 6bde 963f f468 7e3f
00000020: db96 8d3f 7e45 743f 1a47 7f3f c99f 7c3f
00000030: f909 943f 56f4 8d3f 0b3e 843f 3f27 ac3f
1.1005979 1.1471243 1.2797729 0.99379003 0.9800548 1.0827056 1.1786627 0.99378896
1.1061662 0.95418537 0.9971787 0.9868131 1.1565543 1.109019 1.0331434 1.3449477

layer1.0.bn2.bias f4 [16]
00000000: 610c b63d 8628 32bd 331f ce3e 52af 74bc
00000010: 173f d8bc 0825 8cbb c141 743e 5686 1ebe
00000020: 815e 89bd 7696 31be cd08 90bd f84a 87be
00000030: 6fce b9bd 54d6 b93d 0d44 cd3c bc49 bc3c
0.0888908 -0.043495677 0.40258178 -0.014934378 -0.026397271 -0.0042768754 0.23853208 -0.15480933
-0.06707478 -0.17342553 -0.070329286 -0.26424384 -0.09072577 0.09074083 0.025056863 0.022984378

layer1.0.bn2.running_mean f4 [16]
00000000: 496d 7ebb a08e ad3e c367 b6bf bdeb 253f
00000010: 811d a93e 62da a9bf feb7 92be 51a9 14bf
00000020: 5733 2bbe 4156 a5be 0958 cd3e fdfc 2fbd
00000030: 5248 48bf be99 1bbf 0d91 d5bf bda0 a2be
-0.0038822463 0.33897877 -1.4250416 0.64812833 0.33030322 -1.326977 -0.28656 -0.58070856
-0.16718803 -0.3229237 0.40106228 -0.042965878 -0.7823535 -0.60781467 -1.6684891 -0.3176326

layer1.0.bn2.running_var f4 [16]
00000000: e7ce 563f 0e05 8f3f 780d ea3f 4419 663f
00000010: c422 403f 0443 893f 8bc5 583f da3c 853f
00000020: 5bac 573f 3211 323f c4f2 923f 37b0 a83f
00000030: ddcc 733f fca8 823f 4209 c13f 405b 973f
0.8390946 1.1173418 1.828536 0.898823 0.7505305 1.0723577 0.84676427 1.0409195
0.8424737 0.6955749 1.1480336 1.3178777 0.9523447 1.020782 1.508095 1.1824722

layer1.1.conv1.weight f4 [16, 16, 3, 3]
00000000: 7673 58be 479b a7bd 2565 0b3c 4747 47be
00000010: 89a9 c1bc f95f c73c fcfa 6cbd 74d7 a6bd
00000020: 40ad 193e 98f4 8f3d 15c4 d53c f967 7a3d
00000030: 4c0f 58bd 144d 02bc 5272 71bc 6b9f 4abd
00000040: 2c51 b7bd e422 bdbd 94b2 25bd 48f4 753d
00000050: ada8 34be 53d1 993d 90b6 513e b6f9 21be
00000060: d9d7 503d e4fd c73d 2d09 21be 10b4 1cbe
00000070: 5049 b6bc 1535 8e3e 01a0 f4bd 54a3 663c
00000080: 75d3 933e d524 51bd a00b 0a3e 4d82 513e
00000090: 20d8 d83d 2f6a c53c 8e98 8bbd b4b5 f53d
000000a0: 3528 42bd a08b 88bd ff25 03bd f24e edbc
000000b0: eea8 a9bd 7883 343e 8cf1 b33d 7e6d 2bbd
000000c0: d279 213e 6ef3 63bd 653c 45bd cf92 623d
000000d0: 798d 253d 499e 32be 489f e63d 1a44 4e3d
000000e0: 0352 ea3b 6c11 133e d5ed 9c3d 1207 4fbd
000000f0: aa0d b0bd 5d54 4e3d 2ada a1bb a3f2 03be
00000100: 7712 f3bd bea0 46bc d0cb ad3d 1e8d 0ebe
00000110: d1c1 83bd 7404 c8bd 64b1 3abd 8916 debb
00000120: 9bf6 61be fa8c 553c b05f 333e c145 99be
00000130: 4a20 d73c 8e0a 7b3e 4e99 f3bd 7faa 00bd
00000140: 67fe d93d 2405 34be 282f 833d aff5 993d
00000150: a307 d2bd dee8 383e b18d ae3c 0ca5 c53d
00000160: 153f 363e 5afc 87bc f1b4 353e 5b10 403b
00000170: 19f0 e4bb 04c1 6cbd 906d 0abe fb31 a7bd
00000180: 7945 803c ca58 3a3d ad6b 00bd 501b 073e
00000190: 3767 89bd ad8f 83bd a00c 22bc 20ff 8a3d
000001a0: 820b 88bc 23de 0cbe 8064 7cbb 2d92 a73d
000001b0: f82e ecbd 4966 76be a3e3 c1bb 2830 85bd
000001c0: 545f babe bb7a 2fbc 9647 b0bd 45d7 d7bd
000001d0: 55ad c53d 4d37 90bd 871c 293c 6dea 18be
000001e0: 6886 53be 5748 06bc 91e1 023e 49f8 7abe
000001f0: 51a0 a3bd 7750 9f3c d5d9 5f3d 14c0 3dbe
00000200: b28e 42bd 6387 27bd 22bb fcbd 0964 ccbd
00000210: a9db acbd 0ad3 d53c 5956 0fbe a29b d5bc
00000220: 49f9 0f3e 668c d8bd a042 a03c 31a2 6f3d
00000230: bb38 ebbc cb50 3f3e 54be 8e3d 5de7 94bd
00000240: bd29 843e 665f 5ebe b714 fe3d d6f8 7ebd
00000250: df0e 6d3e 6717 71be a37b 4fbe f8bd 18bb
00000260: 8a10 3c3d e90d e4bd e15c c6bd 394b b5bb
00000270: 91b7 c9bd 3a82 81bd d7c2 3d3c 7d65 8cbd
00000280: 8c50 00bd f64b e9bc 2a3a 493c 09a7 81be
00000290: 52e1 fa3d c612 f73d 946b 613e 5299 41be
000002a0: ff13 9cbc 259d 8a3e f460 043d 1d6f 44bd
000002b0: 3101 01bd d0eb b1bc bcdb 343d ff07 a2bd
000002c0: 6bf2 6f3d 655b 553c f021 01be 4fb0 8539
000002d0: 7833 40be 918f 873b 16e2 793e 5880 e63c
000002e0: 9ead 60be 8840 96bc 2b63 edbd 3a39 de3d
000002f0: 8a14 22be 5945 f63b 23bd bc3d 65d5 dc3c
00000300: 806d db3b 38bd b83c 9dac 613d 0f9a 343e
00000310: 27e6 a73b 53af 563d 0f8c 223e 9210 30bd
00000320: e997 09bd 536c cd3d 2850 3c3e 2b4b 0fbe
00000330: f0b0 bf3c 704e d7bb b417 f43d 349e 93bd
00000340: 770d a23d bb6c 86bd 78c1 9cbc 445d 273c
00000350: f1d0 a53d 9f2a de3d 9631 e3bd 5f48 cf3c
00000360: b93d b9bd 83e8 19bc 513d 7bbe 66cc 0b3e
00000370: 3fde 0e3e ea71 f0bd 4d80 233e 9e40 633d
00000380: b9cf b4bd 9b01 a8bc 1081 06be 8b4b f63d
00000390: 527d 15be 6976 23bc 8cb6 e4bd 934f 913d
000003a0: 37fd d23c d319 afbc 7dab 54bd 0a9f 333e
000003b0: 223d 023d 50fe b1bc 2572 743d da3b 043e
000003c0: c0d2 bdbd 8b1b 9abd 7cda 903d c75d 2d3d
000003d0: 4f1f 5bbe d628 71be 0e80 07bd 4795 e13d
000003e0: 8f3d d03c 1bc6 c1bd faed b73d 4979 c33d
000003f0: 0a00 a03d b4c4 ccbc b1c7 a4bd 08a4 c73d
-0.21137795 -0.08183914 0.008508001 -0.19460784 -0.023640411 0.024337756 -0.057856545 -0.08146563
0.15007496 0.070290744 0.026094476 0.061134312 -0.052748963 -0.007952947 -0.014736729 -0.04946844
-0.08951029 -0.092351705 -0.04045351 0.060047418 -0.1764247 0.075106286 0.20479798 -0.15817913
0.0509871 0.09765223 -0.15726157 -0.15303063 -0.022251755 0.27774873 -0.11944581 0.014077026
0.28872266 -0.051060516 0.13480997 0.20459862 0.105880976 0.024098484 -0.06816207 0.11997548
-0.047401626 -0.06667256 -0.032018658 -0.028968308 -0.08284174 0.17628276 0.08786306 -0.041852467
0.15769127 -0.055652075 -0.0481533 0.05531579 0.040418122 -0.17443193 0.11260849 0.050357915
0.00715089 0.14362115 0.0766255 -0.050543852 -0.08596356 0.050373424 -0.0049393373 -0.12885527
-0.11868756 -0.012123285 0.0848614 -0.1392102 -0.06433452 -0.09766474 -0.04557933 -0.0067775887
-0.22066729 0.0130341 0.1751697 -0.2993603 0.026260514 0.24515745 -0.11894475 -0.031412598
0.106442265 -0.17580086 0.06405479 0.075175636 -0.10255363 0.18057582 0.021307798 0.09650621
0.17797501 -0.016599823 0.17744805 0.0029306624 -0.0069866297 -0.05780126 -0.13518357 -0.0816383
0.015658127 0.045494832 -0.031352688 0.13194013 -0.0670914 -0.06423888 -0.009890705 0.067869425
-0.01660705 -0.13756613 -0.003851205 0.08182178 -0.11532396 -0.24062456 -0.005917029 -0.06503326
-0.36400855 -0.010710414 -0.08607404 -0.10539106 0.09652201 -0.07041798 0.010321743 -0.14933176
-0.2065674 -0.008195958 0.1278136 -0.24508776 -0.07989562 0.019447548 0.0546511 -0.18530303
-0.047499366 -0.0409006 -0.1234038 -0.09980018 -0.08440334 0.026101608 -0.13997783 -0.026075188
0.14059938 -0.10573654 0.01956302 0.058504287 -0.028713575 0.18683164 0.06969896 -0.072706915
0.25813094 -0.21716079 0.12406295 -0.062249027 0.23150204 -0.23544084 -0.20262007 -0.002330659
0.04591421 -0.11135466 -0.09685684 -0.005532649 -0.09849466 -0.06323667 0.011582098 -0.06855295
-0.031326815 -0.028478604 0.012281934 -0.2532275 0.12250008 0.120641276 0.22013694 -0.18906143
-0.019052504 0.27073017 0.032319024 -0.04795753 -0.031495277 -0.02171889 0.044154868 -0.079116814
0.058580797 0.013022278 -0.12610602 0.00025499097 -0.18769634 0.0041369875 0.24402651 0.028137371
-0.2194123 -0.018341318 -0.115911804 0.10850759 -0.15828148 0.007515591 0.092157625 0.026957223
0.006696403 0.022551164 0.055096257 0.17636894 0.005123872 0.052413296 0.1587374 -0.042984553
-0.03359214 0.10030427 0.18389952 -0.13993518 0.0233998 -0.00657063 0.119185835 -0.07207909
0.079127245 -0.065637074 -0.019135222 0.010215107 0.08096493 0.10847973 -0.11093442 0.025303064
-0.09044976 -0.009393814 -0.24535109 0.1365219 0.13951968 -0.117404774 0.15966912 0.055481546
-0.088286825 -0.020508578 -0.13135171 0.120261274 -0.14598587 -0.009976962 -0.111676306 0.07095256
0.025755508 -0.021374619 -0.051921356 0.17541137 0.031796582 -0.021727711 0.05967917 0.12913457
-0.09268713 -0.07524785 0.070729226 0.04232576 -0.21398662 -0.23550734 -0.033081107 0.110148005
0.025419978 -0.09461614 0.08980937 0.09544618 0.078125075 -0.02499614 -0.080459006 0.09748083

layer1.1.bn1.weight f4 [16]
00000000: 56c1 4b3f 0579 843f cf43 8d3f fea3 7d3f
00000010: c722 5d3f f6da 8c3f b5e7 7e3f b1de 6f3f
00000020: 408c 8c3f f063 5a3f dd41 9a3f 61ca 753f
00000030: 3626 743f 0eaf 763f 1a23 733f 2e31 763f
0.7959188 1.0349432 1.1036319 0.9907836 0.8638119 1.1004322 0.99572307 0.93699175
1.0980301 0.8530874 1.205135 0.9601193 0.95370805 0.9636086 0.94975436 0.9616879

layer1.1.bn1.bias f4 [16]
00000000: a297 39be a375 7bbe 04da 38be e0c1 c5bd
00000010: 2f54 40be cbd1 01bd fe55 13be 0bf7 fbbb
00000020: c0cf 94be 301b 38be 8708 46be edfa 74be
00000030: d678 9bbe ee75 87bd 06a5 44be 1148 3abe
-0.1812425 -0.24556594 -0.18051916 -0.09656119 -0.18782113 -0.031694215 -0.14388272 -0.007689362
-0.2906475 -0.17979121 -0.1933919 -0.23923846 -0.30365628 -0.0661429 -0.19203576 -0.18191554

layer1.1.bn1.running_mean f4 [16]
00000000: 29e4 a9bf 4715 413e 9cdb 12bf 23f7 0ebf
00000010: 5417 4cbf 7ccf a8bf 5cea 8fbf 316c 8bbf
00000020: 1fec 72bf c91d 0bc0 3683 2cbf b09b acbf
00000030: dfb6 bcbf 321a 4fbf 6964 8f3f 1687 e7bf
-1.3272754 0.18855773 -0.5736635 -0.5584585 -0.79723096 -1.3188319 -1.1243396 -1.0892392
-0.9489154 -2.173693 -0.6738771 -1.3485012 -1.4743308 -0.80899346 1.1202518 -1.80881

layer1.1.bn1.running_var f4 [16]
00000000: bdec 1d40 434a 4240 4161 a740 18f8 3940
00000010: c249 4340 4021 be40 f37a d740 98dc 6e40
00000020: 537c 2d40 a14d 8c40 0031 b540 d314 6b40
00000030: 69de 5f40 b77b 8640 e340 4940 4126 0340
2.4675744 3.0357826 5.230622 2.9057674 3.0513768 5.941559 6.7337584 3.732214
2.7107131 4.384476 5.6622314 3.673146 3.4979498 4.202602 3.1445854 2.0492098

layer1.1.conv2.weight f4 [16, 16, 3, 3]
00000000: 3b5c 4f3d 4127 4c3d fddb 12bd e362 433d
00000010: 185f e13d 05a9 d13c 9187 42be 2dd3 023e
00000020: e6ef d5bc 1cb0 06be 923f 6c3d c56c 6dbd
00000030: 91df 7bbd d013 1f3e f78b 273e c170 133e
00000040: 147c c93d 1af7 903d 364d 0c3d 58c3 58bd
00000050: 4611 7f3e 8262 103d db01 43bd 55cd 8f3e
00000060: 6ae0 cabd 6f03 2cbd 6d80 f23c 1781 9cbd
00000070: d9d3 243c 7ac5 053e 59db 99bd d71d 5fbd
00000080: a68c 663e 6959 56bd 3ecf efbc 31ba fb3c
00000090: c842 89bd a8d5 5d3d 846b 2abc d360 87bd
000000a0: 41b0 46bc 76e3 dc3d 34cf 38bd be82 40bc
000000b0: d524 0cbc 15c4 ca3d 94af 44be 244f 593e
000000c0: 14c1 5b3e 98f6 bdbe 67bf c63e de16 6d3d
000000d0: 4855 b8bc 20fa 503d 0de2 753d c635 983d
000000e0: bf9a 403e 7b56 843b 432f 133e 9768 4e3d
000000f0: 3612 ab3d 497b 02ba a91d 953b 53af 1d3e
00000100: ad43 893b a213 0ebd b076 c3bc 4927 723d
00000110: e909 283d 02e0 94bd ddc2 5d3b 9995 7a3d
00000120: 5669 ffbc 7734 b2bd 851f 333d 3a96 9f3d
00000130: 7c8a d53d d5fb f03d 6810 0abe 48c7 bbbb
00000140: f22c 003e c75b d83d 31b1 88bd c470 813d
00000150: f346 eb3d c698 26bd f055 0ebe 5159 5bbd
00000160: d163 dfbd 1d82 9fbd 7e52 3a3d 391e f43c
00000170: 8206 34be cd94 8c3d 1a6f 873e 901e 193e
00000180: 105c 143e d444 4b3e 2694 b13e a61c 7a3d
00000190: 3f65 c43c 0adf 21be 12c3 733d e8a8 48bb
000001a0: 9f94 e3bd 1fa9 a5bd ef0a b33b b71e b4bd
000001b0: 706b 77bd 8b8f 8d3d 3a2c e3bc 26df 893d
000001c0: 62e5 263d 44e4 07bd ab59 103e 7fa0 ae3d
000001d0: 2754 153e 5c3a 6a3d 9f4b 143e bf57 cabc
000001e0: bbaf 7dbc 7202 c43d 3108 893b 25a4 d3bc
000001f0: 1a56 9dbc 5249 983d 91b4 63bd c33b 023e
00000200: 102c f53d 87c1 9dbb 6da6 a03b b66c 153c
00000210: 6da8 85bd ae57 11be d41f 3a3d 165d 4dbc
00000220: 44eb 0e3d c6e9 1abe 456d 373d e8a0 453d
00000230: abf4 d6bd da8c a1bd b5dc 1c3e fa2e 833d
00000240: c8ff 923d 8378 f5bd 0e5d 243e 35b5 11bd
00000250: 6de1 5fbd 46e8 113e 1ddc fdbc 9a8b 483d
00000260: 2052 3c3e 1252 0fbe b884 f1bc 59d9 a53d
00000270: 5ff9 4fbe 950f 43be 4479 903d 3c1e fcbd
00000280: 832d 363c c4b5 8dbc 9e41 9ebd 40b9 1f3e
00000290: 8364 a03d 2a55 ec3c c06d 793e 9c28 f9bb
000002a0: 992e 243e fd89 9a3e db25 523d 24ef 00be
000002b0: 1297 57be a2e2 acbd c667 40be 0c03 e3bd
000002c0: f219 9f3c 9ce3 78bd b725 bebd 9ea5 1eba
000002d0: 9e3a 363e cf36 bc3d 44dc fd3d dfba d13c
000002e0: b48c 943d d781 093e dca8 3d3d 3613 54bb
000002f0: 608d e63c 61d5 88be 562e 00bd 9010 45bd
00000300: 957f 1bbe 5990 a7bd ee1e 25be f445 5cbd
00000310: 25c2 d2bc 00e3 78bd 5a81 87bd f18b 993c
00000320: b563 6dbd 6bdd c6bd baaa 613d 3a8c 5ab9
00000330: b1dc 8ebd 8092 033c 20af 1e3e 9ca8 2f3d
00000340: 9c96 afbd 76a0 e5bd e18b bdbd 03d3 9d3c
00000350: b7f0 7a3d 1981 9ebd dce4 153d 800e 9cbc
00000360: 17e2 81bd d69b 023e 933a 3c3e 7f92 f93d
00000370: d51d c03e 925a 013e 2f4c 6a3d 1023 e93d
00000380: 8b0a 1b3e 454e d0bd 6267 d9bd e6f0 89bd
00000390: bdf3 99bc 5015 c5bd bdb3 9c3b 7728 663d
000003a0: db93 a2bd 6d64 2fbd 1a04 973d 6ec2 2bbe
000003b0: c7c1 153d 1eab 02bd 545a 6cbd b66a c23c
000003c0: 8921 883d 1a8a 173e c8ed 30bd de08 59bc
000003d0: 8fd0 113c f728 b33d 1b90 a4bd 61b2 f53c
000003e0: 87bf e53d f81e e8bd cacb ba3c 705e 083e
000003f0: 470e 3abe 0793 0dbe edd8 783d 8539 cf3d
0.050625067 0.049842123 -0.03585433 0.047701728 0.11004466 0.02559329 -0.18997027 0.1277587
-0.026115369 -0.13153118 0.057677813 -0.05796506 -0.061492506 0.15534902 0.16361986 0.14398481
0.09838119 0.07078381 0.03425332 -0.05292067 0.24908933 0.035250194 -0.04760919 0.28086343
-0.09906085 -0.041995462 0.029602254 -0.076418094 0.010060274 0.13063613 -0.0751254 -0.054471817
0.2251459 -0.052331362 -0.029273625 0.030728431 -0.06702191 0.054158837 -0.01040161 -0.06610265
-0.012126983 0.10785572 -0.04511948 -0.011749921 -0.008553703 0.09900681 -0.19207603 0.21221596
0.21460372 -0.371022 0.38817903 0.057883136 -0.022501603 0.051019788 0.060030032 0.074321315
0.18809031 0.0040386296 0.14373498 0.050392713 0.08353083 -0.00049774774 0.004550655 0.15398912
0.004188976 -0.034686692 -0.023860306 0.059119496 0.041025076 -0.072692886 0.0033838071 0.061177824
-0.031178158 -0.08701413 0.04373123 0.07792325 0.104268044 0.11766783 -0.13482821 -0.0057305433
0.12517145 0.1056438 -0.066744216 0.063203365 0.11488142 -0.04067304 -0.1389997 -0.053551976
-0.1090771 -0.07788489 0.045488827 0.029799568 -0.17580608 0.06864319 0.2645195 0.14953065
0.14488244 0.19850475 0.3468334 0.061062478 0.02397406 -0.15807739 0.059512205 -0.0030618254
-0.111123316 -0.08088898 0.00546395 -0.08794921 -0.060405195 0.06912144 -0.02773105 0.06732015
0.0407461 -0.033176675 0.14096706 0.08526706 0.14582883 0.057184562 0.14481972 -0.024700044
-0.015483792 0.09570779 0.0041818847 -0.025835106 -0.019206095 0.0743586 -0.055592123 0.1271811
0.11971295 -0.00481433 0.004902652 0.009120157 -0.06526265 -0.14193603 0.04544051 -0.0125344
0.034892336 -0.1512824 0.044781942 0.048249155 -0.104958855 -0.078881934 0.15318568 0.064054444
0.07177693 -0.119858764 0.16051123 -0.035573203 -0.054658342 0.14248762 -0.030988747 0.04896126
0.18390703 -0.13996151 -0.02948223 0.080980964 -0.20309971 -0.19048913 0.070543796 -0.12310454
0.011119249 -0.017298587 -0.07727359 0.15598011 0.07831671 0.028849203 0.24358273 -0.007603718
0.160334 0.30183402 0.051305633 -0.12591225 -0.21053723 -0.08441664 -0.18789586 -0.110845655
0.019421551 -0.06076394 -0.09284537 -0.00060519006 0.17795798 0.091901414 0.12395528 0.025601802
0.072533995 0.13428436 0.046303615 -0.0032360083 0.028143585 -0.26725295 -0.03129419 -0.0481115
-0.15185387 -0.08181829 -0.1612508 -0.05377765 -0.025727341 -0.06076336 -0.06616469 0.018743487
-0.057956416 -0.09710201 0.05509446 -0.00020842339 -0.06975687 0.008030534 0.15496492 0.042885408
-0.08573648 -0.11212246 -0.092551954 0.019265657 0.06126472 -0.07739467 0.03659521 -0.019049883
-0.06341951 0.12754759 0.1838172 0.12186145 0.3752276 0.12632206 0.05720156 0.11383641
0.1514074 -0.10171179 -0.10615422 -0.06735401 -0.018792981 -0.09623206 0.0047821687 0.056190934
-0.079383574 -0.042820383 0.07373829 -0.16773388 0.036561754 -0.03190147 -0.05770333 0.023732524
0.06647021 0.14798775 -0.043195516 -0.013246743 0.008899822 0.08748048 -0.080352984 0.029992284
0.112181716 -0.11334032 0.022802252 0.13317275 -0.18169509 -0.13825618 0.06075375 0.10118393

layer1.1.bn2.weight f4 [16]
00000000: e995 9b3f 0b5e 643f 5fe7 7b3f b5ab 663f
00000010: 0686 5b3f 7163 873f fc9a 8d3f a58b 823f
00000020: 57e0 823f 8225 5d3f bc10 653f 1eb3 4c3f
00000030: 7743 773f caad 8b3f 943f 903f 938d 8d3f
1.2155124 0.89206 0.9839992 0.90105754 0.8575138 1.0577222 1.1062922 1.0198866
1.0224713 0.8638536 0.8947866 0.7996081 0.9658732 1.0912411 1.1269403 1.105883

layer1.1.bn2.bias f4 [16]
00000000: 45f3 30be 479f 5e3e 33e3 6ebd ee18 753e
00000010: c0f3 d7bd a45d 8fbc 1393 b2be 1912 48be
00000020: ed19 893e 9458 21be 3b6a 223d abb5 36be
00000030: 9b03 91bc 83d1 d63b da54 69bd a17f f6be
-0.172803 0.21740447 -0.058322143 0.23935291 -0.105445385 -0.017500706 -0.34877834 -0.19538154
0.26777592 -0.15756446 0.03965209 -0.17842738 -0.017701915 0.0065557375 -0.056965686 -0.48144248

layer1.1.bn2.running_mean f4 [16]
00000000: 01e7 8e3f 6b54 02be 268c 2abf b3e2 98bf
00000010: cfa8 613e e90c 263f c13b 3dbe 141c 803e
00000020: d6c4 6fbf 43df f1bc d4ed aebf 7e12 49be
00000030: 14a7 45be 1489 84bf 826a bfbe 95fd babd
1.1164247 -0.12727515 -0.666201 -1.1944183 0.22037052 0.6486345 -0.18479826 0.25021422
-0.9365972 -0.029525405 -1.3666329 -0.1963596 -0.19302016 -1.0354333 -0.37385947 -0.09130398

layer1.1.bn2.running_var f4 [16]
00000000: 225e a63f ed76 763f 718c 793f 9f4b 953f
00000010: 3a86 683f 162b 523f 91f1 5e3f af91 133f
00000020: 27a5 763f 166b 263f 890d 703f 31f5 263f
00000030: 14b7 383f d6ed 463f a75e 643f 254c 493f
1.2997477 0.96275216 0.9747992 1.1663703 0.90829813 0.82096994 0.8708735 0.5764417
0.9634575 0.6500715 0.93770653 0.6521788 0.72154355 0.7770666 0.8920693 0.7863181

layer2.0.conv1.weight f4 [32, 16, 3, 3]
00000000: eb55 363c 90a6 c73c 91f3 54bd a117 823d
00000010: 1433 d23d e934 de3c 494b 083d 9ee1 d73d
00000020: a804 813d d76b 07be 2e2f a6bd 6aa9 85bc
00000030: 96c3 43be 2fe8 24be 7a91 583d 6f7e f1bd
00000040: eb47 abbd dda1 6d3d fab8 5bbd ed3d 8ebd
00000050: 78d1 4dbd 2d24 b53d e3d9 1cbe 254b cfbd
00000060: cad4 1d3e 0b9c 50bc 4519 11be a9f1 9ebe
00000070: bb52 84be ea4a 7cbe e203 02be 0bb6 6ebe
00000080: b13b d0bd 9388 c23d e73a 5bbc 3165 49be
00000090: a138 5fbb 29aa d43d 7a6b c2bc a329 13bd
000000a0: 2544 773d ace6 dc3d 8f8c aebc aded a0bc
000000b0: a4a8 5cbd 500b 5abd efac 5d3c 7101 c93d
000000c0: dcc5 3cbe a764 e6bd 9707 b4bd ac64 10be
000000d0: 0829 c3be 031e 32be 282b e43c c4c0 0abd
000000e0: 1756 bd3c 2383 313d d545 e5bc 4a6c 2e3b
000000f0: b427 bf3c 3274 01bd 8479 04bd 7512 0dbc
00000100: ee3b f0bd 57a1 ea3c 5e66 f2bd 19ba 0fbe
00000110: fea2 16be 8c02 89bd dd35 4fbd 0603 fdbd
00000120: d31d b8bd 7b99 7ebe 88b4 72be e59c dfbc
00000130: adc2 04be 9d95 b5be bfb5 dc3d ced2 b5bd
00000140: ee48 74be 2850 033e 6844 323e c383 c23d
00000150: fa6c 9f3c b067 693e 59de 0d3e f5de 173d
00000160: ad3e fd3c 8906 013e 8132 093e 091e 5d3e
00000170: f0f1 3a3d c26e 103e a9b1 023e fa56 313e
00000180: 673b 99bc 57b0 e83d ce04 9d3d 05cd 0b3e
00000190: f20a 963d cf75 afba 6b05 ed3b 29e7 e23b
000001a0: 0e73 24bd af74 ba3d 055d d93d 9000 d13c
000001b0: 4e18 373d fd14 253d 0f7f f13d 0dee 673a
000001c0: 4126 0bbe 1dae d5bd f4c3 123d 954c 6bbe
000001d0: 2936 5fbe 5358 b53d c021 15bd 4f53 f8bd
000001e0: 6a11 423d a53d f3bd c8e0 a3bd 7cbc db3c
000001f0: bef3 e6bc 99ba 1abe 9257 5a3d 6008 e23d
00000200: 648c 9fbc 5bcf 11bd 8fbb 893d cfe7 9d3d
00000210: 58e6 39bc f5ac 803d df6c c83d 6af0 cf3c
00000220: 8a00 743c e810 f33d 04da 82bc ed99 003d
00000230: db25 0a3d 72a4 9bbc 3742 cebc 0648 b43a
00000240: ef5d de3d 718d 87bc 4861 bcbd 077a 843d
00000250: 8924 93bd f6d3 4cbe cc5d 363d 92be c8bd
00000260: 4c87 f4bc 29e1 89bb c6fc 9abd 8082 71bd
00000270: 1274 14bb 4a21 0c3d dcca 883d bc1f a7bc
00000280: 78c3 143d 279f 83bc b20a 05be 4302 acbc
00000290: 451f 733d 50f7 82bd 819b 0bbd 09f9 52bd
000002a0: a194 00be 8777 d7bd d5aa 0bbe f900 283d
000002b0: fc0a 1c3e 5ca8 a53c bc05 843e a894 643e
000002c0: ab38 213e da23 293e e7bf 553e 3ddf 923d
000002d0: 2895 34bd 4a89 94bc 17ca aebd 3e55 a53d
000002e0: 7054 2f3d 2186 0fbe c8d4 553d 8253 93ba
000002f0: f679 6a3d f135 cdbc 0a93 a03b 09c8 7f3c
00000300: 85e8 5dbe 885c 8fbd 9de3 863d e132 12be
00000310: 0007 0c3d dd4a b43d 5e4a 79bc 32d1 07bd
00000320: 7dd3 e7bd de69 6d3d 7a97 823d b0bc 9fbd
00000330: baf4 263e cb73 833d ce25 8d3d 0456 91bc
00000340: 7222 69bd 5a1b d2bd af06 e03d 9461 1f3d
00000350: 0a18 b3bd b6d2 e43d 2b3e 42bd 1d32 60be
00000360: fef0 8c3d 6621 10bd 2768 a1bd 1fba 523e
00000370: 8a97 adb8 f851 0bbe 1efd 153e f7bb 583b
00000380: a1bb e1bd 7cb4 5abc d502 36be bb7d 92be
00000390: 7443 313d 268a fdbc ddb1 90be 6663 153e
000003a0: 2c45 4bbe fc7d 1ebe 0791 87bd c5f8 2ebd
000003b0: 600a d9bc 518b dd3d 0634 eb3d 16af 183e
000003c0: a1e7 f53d 4cba 293e 0b43 403e d9df db3d
000003d0: c2f3 3d3e 743e 88bc 07a3 9a3e 9873 4c3e
000003e0: 8418 7c3d d333 703e 2f6e 493e ddfa 9e3d
000003f0: 2cfd b13d 4b7b d8bc 8fa0 d1bd c4db af3d
0.011128883 0.024371415 -0.051990096 0.06352163 0.10263649 0.027124839 0.033274923 0.1054108
0.06299716 -0.13224731 -0.081144676 -0.016316134 -0.19117579 -0.16104196 0.052873112 -0.117916934
-0.08363327 0.058015693 -0.053643204 -0.06945405 -0.050248593 0.088447906 -0.15317492 -0.101217546
0.15413204 -0.012732516 -0.14169796 -0.31043747 -0.25844368 -0.24637952 -0.12696794 -0.23311631
-0.10167635 0.09498706 -0.013380743 -0.19667508 -0.0034060853 0.10384018 -0.02373289 -0.03592838
0.060367722 0.10786185 -0.021307258 -0.019644583 -0.053871766 -0.053233445 0.01353 0.09814728
-0.18434852 -0.11249667 -0.0879051 -0.14100903 -0.38117242 -0.17394261 0.02785261 -0.033875242
0.02311234 0.043337952 -0.0279874 0.0026614838 0.023334362 -0.031604953 -0.03234245 -0.0086103575
-0.11730181 0.028641386 -0.11835931 -0.14035834 -0.14710614 -0.06689939 -0.050588477 -0.12354092
-0.089900635 -0.24863236 -0.2370168 -0.027296493 -0.12964888 -0.35465708 0.10776853 -0.088780984
-0.23855945 0.12823546 0.17408907 0.09497788 0.019461144 0.2279346 0.1385435 0.037077863
0.030913675 0.12600149 0.13398172 0.21593489 0.045640886 0.14104751 0.12763084 0.17318335
-0.018705083 0.11361759 0.07666932 0.13652427 0.073263064 -0.001338655 0.007233312 0.006924529
-0.040148787 0.09104287 0.10613445 0.025512964 0.044700913 0.04030322 0.11791813 0.0008847423
-0.13588811 -0.104336 0.035831407 -0.22978432 -0.21798004 0.08854737 -0.03640914 -0.12125265
0.04737989 -0.11876992 -0.08001858 0.026823275 -0.028192397 -0.15110244 0.05330617 0.11036754
-0.019476123 -0.03559814 0.06725227 0.077102296 -0.011346422 0.06282989 0.097863905 0.025383193
0.014892707 0.11868459 -0.015973099 0.031396795 0.033727508 -0.018999312 -0.025178058 0.0013754375
0.1085776 -0.016546937 -0.091982424 0.06468587 -0.07184703 -0.20002732 0.044523045 -0.098019734
-0.02984967 -0.0042077494 -0.07567744 -0.058962345 -0.002265219 0.034211434 0.06679317 -0.020400874
0.036319226 -0.0160671 -0.12992361 -0.020997172 0.059355993 -0.06394827 -0.034083847 -0.05150703
-0.12556697 -0.10520845 -0.13639386 0.041016553 0.15238565 0.020221882 0.25785625 0.22322333
0.15744273 0.16517583 0.20873986 0.071714856 -0.04408756 -0.01813187 -0.08534639 0.08072899
0.042805135 -0.1401601 0.052204877 -0.0011240097 0.057245217 -0.025050135 0.004900341 0.015611657
-0.2167073 -0.07000071 0.065863825 -0.14277221 0.034186363 0.088033415 -0.015215484 -0.03315849
-0.11319635 0.05796229 0.06376548 -0.07799661 0.16304293 0.0641857 0.06891976 -0.01774121
-0.056917615 -0.10259123 0.10938775 0.038911417 -0.087448195 0.111730024 -0.04742257 -0.21894117
0.06881903 -0.0351881 -0.078811936 0.20578812 -8.277509e-05 -0.13605487 0.14647338 0.003307102
-0.110221155 -0.013348695 -0.17774518 -0.2861155 0.04327722 -0.030949663 -0.282607 0.14588699
-0.19850606 -0.15477747 -0.06619459 -0.042717714 -0.026494205 0.10817588 0.11484532 0.1491054
0.1200707 0.16574973 0.18775575 0.10736055 0.18550017 -0.016631342 0.30202505 0.1996597
0.061546817 0.2345727 0.19670938 0.07762692 0.08690867 -0.026425978 -0.10235702 0.08586839

layer2.0.bn1.weight f4 [32]
00000000: 12a0 713f b81c 703f 49bc 8b3f dbc5 783f
00000010: 29f4 7a3f a7a1 643f b0ac 873f af1d 943f
00000020: 12a9 703f 8e79 903f e43f 813f 3b69 6a3f
00000030: 9b60 7b3f b2c7 683f 2435 6d3f 90e7 903f
00000040: 8f9d 7b3f a67d 803f aa24 703f a14f 823f
00000050: 8466 8f3f 9f41 7d3f f6d8 623f 73a6 a13f
00000060: e84a 853f ee7a 873f 0438 7b3f a752 6d3f
00000070: 5bdd 583f 8cb1 7b3f 5822 6b3f efec 5d3f
0.9438487 0.9379382 1.0916835 0.97176903 0.9802881 0.8930916 1.0599575 1.1571559
0.9400798 1.1287096 1.0097623 0.9156682 0.98194283 0.9092971 0.9265921 1.1320667
0.9828729 1.0038345 0.93805945 1.0180551 1.120316 0.98928255 0.88612306 1.2628921
1.0413485 1.058439 0.9813235 0.9270424 0.8471276 0.9831779 0.9184928 0.86689657

layer2.0.bn1.bias f4 [32]
00000000: f78f 25be aca3 a0bd 0bc7 f0bb 9d53 50be
00000010: f548 3dbe 5a0a 0dbe 9750 92be 9850 aebd
00000020: 2076 a1bd 43f0 e8bd d69a 5dbe 1af0 5abe
00000030: 37a9 11be dd5c 94bd 81ee f8bd 85c5 373d
00000040: 5ebe 8fbe b5c1 15be 1a40 39be 6535 28be
00000050: af95 b03c cb3a a2bd e604 60be d88d 4d3c
00000060: ea51 c8be 5ef1 50bd 2f66 9dbe 443f 57be
00000070: cfd6 19be 25f8 a7be 1ad4 2abe 312c 0ebe
-0.161682 -0.07843718 -0.0073479465 -0.20344396 -0.18484862 -0.1377348 -0.2857711 -0.08511466
-0.07883859 -0.11373951 -0.21641096 -0.21380654 -0.14224707 -0.07244275 -0.12154866 0.044866104
-0.28074926 -0.14624675 -0.18090859 -0.16426618 0.02155575 -0.0792137 -0.21876869 0.012546025
-0.39124995 -0.051011436 -0.30742022 -0.21020228 -0.15023349 -0.32806507 -0.16682473 -0.13884045

layer2.0.bn1.running_mean f4 [32]
00000000: 0b29 3ec0 0105 e43f cae5 04c1 fc82 0a3e
00000010: 3b2b 79c0 da45 90bf 0e4b 45c0 29ce 06be
00000020: b527 8cc0 4ee6 b13f 9891 0540 c9e6 60c0
00000030: c5fa 0abf e299 55c0 b044 ecbe 504f 04c0
00000040: 3c46 53bf 2340 b5c0 d232 b33f c013 8ac0
00000050: 07e6 67c0 5a45 3ebf 5c6a 3ec0 9745 c6c0
00000060: b6a0 adbf c182 1ac0 715a 6cc0 8707 b63f
00000070: b6e5 c1bc 7eaf d9bd a943 23c0 062b 173f
-2.971255 1.7814027 -8.306101 0.13526529 -3.8932636 -1.1271317 -3.082706 -0.13164581
-4.379847 1.3898408 2.0870113 -3.514086 -0.54288894 -3.3375173 -0.46146154 -2.0673409
-0.82529044 -5.664079 1.3999884 -4.314911 -3.6234148 -0.7432457 -2.9752417 -6.195995
-1.356467 -2.4142306 -3.69302 1.4221047 -0.023669105 -0.106291756 -2.5510046 0.59050024

layer2.0.bn1.running_var f4 [32]
00000000: d1b3 dc40 02c4 b240 06b3 0a41 0222 ae40
00000010: 8a05 be40 4cc5 be40 a514 9540 efcf e440
00000020: d08f de40 43f7 ce40 45ec eb40 92a0 af40
00000030: 8714 be40 6433 9640 970d 8f40 f986 0c41
00000040: 27da 9340 be6f dc40 4058 bc40 c5de a940
00000050: 8b58 e040 bb24 b840 bcdd c740 8e42 3e41
00000060: afd2 a440 403b 1a41 27fc 9c40 6172 e740
00000070: 1e62 e040 e503 4741 98a2 b940 30f4 8540
6.8969502 5.5864267 8.668707 5.4416513 5.938176 5.961584 4.65877 7.1503825
6.955055 6.4676833 7.3725915 5.488351 5.940006 4.6937733 4.470409 8.782952
4.62038 6.8886404 5.8857727 5.3084435 7.0108085 5.7544837 6.245817 11.891249
5.150718 9.639465 4.9057803 7.2327123 7.011977 12.438451 5.801098 4.186058
